…
if dummy layers are not used, then layer (3) cannot be saved in the model, as it will be a
dangling layer

##################################################################################################
################################################################################################## 

Model: "model"
__________________________________________________________________________________________________
Layer (type)                    Output Shape         Param #     Connected to                     
==================================================================================================
input_1 (InputLayer)            [(None, 416, 416, 3) 0                                            
__________________________________________________________________________________________________
conv_1 (Conv2D)                 (None, 416, 416, 32) 864         input_1[0][0]                    
__________________________________________________________________________________________________
bnorm_1 (BatchNormalization)    (None, 416, 416, 32) 128         conv_1[0][0]                     
__________________________________________________________________________________________________
leaky_1 (LeakyReLU)             (None, 416, 416, 32) 0           bnorm_1[0][0]                    
__________________________________________________________________________________________________
pad_2 (ZeroPadding2D)           (None, 418, 418, 32) 0           leaky_1[0][0]                    
__________________________________________________________________________________________________
conv_2 (Conv2D)                 (None, 208, 208, 64) 18432       pad_2[0][0]                      
__________________________________________________________________________________________________
bnorm_2 (BatchNormalization)    (None, 208, 208, 64) 256         conv_2[0][0]                     
__________________________________________________________________________________________________
leaky_2 (LeakyReLU)             (None, 208, 208, 64) 0           bnorm_2[0][0]                    
__________________________________________________________________________________________________
conv_3 (Conv2D)                 (None, 208, 208, 32) 2048        leaky_2[0][0]                    
__________________________________________________________________________________________________
bnorm_3 (BatchNormalization)    (None, 208, 208, 32) 128         conv_3[0][0]                     
__________________________________________________________________________________________________
leaky_3 (LeakyReLU)             (None, 208, 208, 32) 0           bnorm_3[0][0]                    
__________________________________________________________________________________________________
conv_4 (Conv2D)                 (None, 208, 208, 64) 18432       leaky_3[0][0]                    
__________________________________________________________________________________________________
bnorm_4 (BatchNormalization)    (None, 208, 208, 64) 256         conv_4[0][0]                     
__________________________________________________________________________________________________
leaky_4 (LeakyReLU)             (None, 208, 208, 64) 0           bnorm_4[0][0]                    
__________________________________________________________________________________________________
shortcut_5 (Add)                (None, 208, 208, 64) 0           leaky_4[0][0]                    
                                                                 leaky_2[0][0]                    
__________________________________________________________________________________________________
pad_6 (ZeroPadding2D)           (None, 210, 210, 64) 0           shortcut_5[0][0]                 
__________________________________________________________________________________________________
conv_6 (Conv2D)                 (None, 104, 104, 128 73728       pad_6[0][0]                      
__________________________________________________________________________________________________
bnorm_6 (BatchNormalization)    (None, 104, 104, 128 512         conv_6[0][0]                     
__________________________________________________________________________________________________
leaky_6 (LeakyReLU)             (None, 104, 104, 128 0           bnorm_6[0][0]                    
__________________________________________________________________________________________________
conv_7 (Conv2D)                 (None, 104, 104, 64) 8192        leaky_6[0][0]                    
__________________________________________________________________________________________________
bnorm_7 (BatchNormalization)    (None, 104, 104, 64) 256         conv_7[0][0]                     
__________________________________________________________________________________________________
leaky_7 (LeakyReLU)             (None, 104, 104, 64) 0           bnorm_7[0][0]                    
__________________________________________________________________________________________________
conv_8 (Conv2D)                 (None, 104, 104, 128 73728       leaky_7[0][0]                    
__________________________________________________________________________________________________
bnorm_8 (BatchNormalization)    (None, 104, 104, 128 512         conv_8[0][0]                     
…
__________________________________________________________________________________________________
shortcut_12 (Add)               (None, 104, 104, 128 0           leaky_11[0][0]                   
                                                                 shortcut_9[0][0]                 
__________________________________________________________________________________________________
pad_13 (ZeroPadding2D)          (None, 106, 106, 128 0           shortcut_12[0][0]                
__________________________________________________________________________________________________
conv_13 (Conv2D)                (None, 52, 52, 256)  294912      pad_13[0][0]                     
__________________________________________________________________________________________________
bnorm_13 (BatchNormalization)   (None, 52, 52, 256)  1024        conv_13[0][0]                    
__________________________________________________________________________________________________
leaky_13 (LeakyReLU)            (None, 52, 52, 256)  0           bnorm_13[0][0]                   
__________________________________________________________________________________________________
conv_14 (Conv2D)                (None, 52, 52, 128)  32768       leaky_13[0][0]                   
__________________________________________________________________________________________________
bnorm_14 (BatchNormalization)   (None, 52, 52, 128)  512         conv_14[0][0]                    
__________________________________________________________________________________________________
leaky_14 (LeakyReLU)            (None, 52, 52, 128)  0           bnorm_14[0][0]                   
__________________________________________________________________________________________________
conv_15 (Conv2D)                (None, 52, 52, 256)  294912      leaky_14[0][0]                   
__________________________________________________________________________________________________
bnorm_15 (BatchNormalization)   (None, 52, 52, 256)  1024        conv_15[0][0]                    
__________________________________________________________________________________________________
leaky_15 (LeakyReLU)            (None, 52, 52, 256)  0           bnorm_15[0][0]                   
__________________________________________________________________________________________________
shortcut_16 (Add)               (None, 52, 52, 256)  0           leaky_15[0][0]                   
                                                                 leaky_13[0][0]                   
__________________________________________________________________________________________________
conv_17 (Conv2D)                (None, 52, 52, 128)  32768       shortcut_16[0][0]                
__________________________________________________________________________________________________
bnorm_17 (BatchNormalization)   (None, 52, 52, 128)  512         conv_17[0][0]                    
__________________________________________________________________________________________________
leaky_17 (LeakyReLU)            (None, 52, 52, 128)  0           bnorm_17[0][0]                   
__________________________________________________________________________________________________
conv_18 (Conv2D)                (None, 52, 52, 256)  294912      leaky_17[0][0]                   
__________________________________________________________________________________________________
bnorm_18 (BatchNormalization)   (None, 52, 52, 256)  1024        conv_18[0][0]                    
__________________________________________________________________________________________________
leaky_18 (LeakyReLU)            (None, 52, 52, 256)  0           bnorm_18[0][0]                   
__________________________________________________________________________________________________
shortcut_19 (Add)               (None, 52, 52, 256)  0           leaky_18[0][0]                   
                                                                 shortcut_16[0][0]                
__________________________________________________________________________________________________
conv_20 (Conv2D)                (None, 52, 52, 128)  32768       shortcut_19[0][0]                
__________________________________________________________________________________________________
bnorm_20 (BatchNormalization)   (None, 52, 52, 128)  512         conv_20[0][0]                    
__________________________________________________________________________________________________
leaky_20 (LeakyReLU)            (None, 52, 52, 128)  0           bnorm_20[0][0]                   
__________________________________________________________________________________________________
conv_21 (Conv2D)                (None, 52, 52, 256)  294912      leaky_20[0][0]                   
__________________________________________________________________________________________________
bnorm_21 (BatchNormalization)   (None, 52, 52, 256)  1024        conv_21[0][0]                    
__________________________________________________________________________________________________
leaky_21 (LeakyReLU)            (None, 52, 52, 256)  0           bnorm_21[0][0]                   
__________________________________________________________________________________________________
shortcut_22 (Add)               (None, 52, 52, 256)  0           leaky_21[0][0]                   
                                                                 shortcut_19[0][0]                
__________________________________________________________________________________________________
conv_23 (Conv2D)                (None, 52, 52, 128)  32768       shortcut_22[0][0]                
__________________________________________________________________________________________________
bnorm_23 (BatchNormalization)   (None, 52, 52, 128)  512         conv_23[0][0]                    
__________________________________________________________________________________________________
leaky_23 (LeakyReLU)            (None, 52, 52, 128)  0           bnorm_23[0][0]                   
__________________________________________________________________________________________________
conv_24 (Conv2D)                (None, 52, 52, 256)  294912      leaky_23[0][0]                   
__________________________________________________________________________________________________
bnorm_24 (BatchNormalization)   (None, 52, 52, 256)  1024        conv_24[0][0]                    
__________________________________________________________________________________________________
leaky_24 (LeakyReLU)            (None, 52, 52, 256)  0           bnorm_24[0][0]                   
__________________________________________________________________________________________________
shortcut_25 (Add)               (None, 52, 52, 256)  0           leaky_24[0][0]                   
                                                                 shortcut_22[0][0]                
__________________________________________________________________________________________________
conv_26 (Conv2D)                (None, 52, 52, 128)  32768       shortcut_25[0][0]                
__________________________________________________________________________________________________
bnorm_26 (BatchNormalization)   (None, 52, 52, 128)  512         conv_26[0][0]                    
__________________________________________________________________________________________________
leaky_26 (LeakyReLU)            (None, 52, 52, 128)  0           bnorm_26[0][0]                   
__________________________________________________________________________________________________
conv_27 (Conv2D)                (None, 52, 52, 256)  294912      leaky_26[0][0]                   
__________________________________________________________________________________________________
bnorm_27 (BatchNormalization)   (None, 52, 52, 256)  1024        conv_27[0][0]                    
__________________________________________________________________________________________________
leaky_27 (LeakyReLU)            (None, 52, 52, 256)  0           bnorm_27[0][0]                   
__________________________________________________________________________________________________
shortcut_28 (Add)               (None, 52, 52, 256)  0           leaky_27[0][0]                   
                                                                 shortcut_25[0][0]                
__________________________________________________________________________________________________
conv_29 (Conv2D)                (None, 52, 52, 128)  32768       shortcut_28[0][0]                
__________________________________________________________________________________________________
bnorm_29 (BatchNormalization)   (None, 52, 52, 128)  512         conv_29[0][0]                    
__________________________________________________________________________________________________
leaky_29 (LeakyReLU)            (None, 52, 52, 128)  0           bnorm_29[0][0]                   
__________________________________________________________________________________________________
conv_30 (Conv2D)                (None, 52, 52, 256)  294912      leaky_29[0][0]                   
__________________________________________________________________________________________________
bnorm_30 (BatchNormalization)   (None, 52, 52, 256)  1024        conv_30[0][0]                    
__________________________________________________________________________________________________
leaky_30 (LeakyReLU)            (None, 52, 52, 256)  0           bnorm_30[0][0]                   
__________________________________________________________________________________________________
shortcut_31 (Add)               (None, 52, 52, 256)  0           leaky_30[0][0]                   
                                                                 shortcut_28[0][0]                
__________________________________________________________________________________________________
conv_32 (Conv2D)                (None, 52, 52, 128)  32768       shortcut_31[0][0]                
__________________________________________________________________________________________________
bnorm_32 (BatchNormalization)   (None, 52, 52, 128)  512         conv_32[0][0]                    
__________________________________________________________________________________________________
leaky_32 (LeakyReLU)            (None, 52, 52, 128)  0           bnorm_32[0][0]                   
__________________________________________________________________________________________________
conv_33 (Conv2D)                (None, 52, 52, 256)  294912      leaky_32[0][0]                   
__________________________________________________________________________________________________
bnorm_33 (BatchNormalization)   (None, 52, 52, 256)  1024        conv_33[0][0]                    
__________________________________________________________________________________________________
leaky_33 (LeakyReLU)            (None, 52, 52, 256)  0           bnorm_33[0][0]                   
__________________________________________________________________________________________________
shortcut_34 (Add)               (None, 52, 52, 256)  0           leaky_33[0][0]                   
                                                                 shortcut_31[0][0]                
__________________________________________________________________________________________________
conv_35 (Conv2D)                (None, 52, 52, 128)  32768       shortcut_34[0][0]                
__________________________________________________________________________________________________
bnorm_35 (BatchNormalization)   (None, 52, 52, 128)  512         conv_35[0][0]                    
__________________________________________________________________________________________________
leaky_35 (LeakyReLU)            (None, 52, 52, 128)  0           bnorm_35[0][0]                   
__________________________________________________________________________________________________
conv_36 (Conv2D)                (None, 52, 52, 256)  294912      leaky_35[0][0]                   
__________________________________________________________________________________________________
bnorm_36 (BatchNormalization)   (None, 52, 52, 256)  1024        conv_36[0][0]                    
__________________________________________________________________________________________________
leaky_36 (LeakyReLU)            (None, 52, 52, 256)  0           bnorm_36[0][0]                   
__________________________________________________________________________________________________
shortcut_37 (Add)               (None, 52, 52, 256)  0           leaky_36[0][0]                   
                                                                 shortcut_34[0][0]                
__________________________________________________________________________________________________
pad_38 (ZeroPadding2D)          (None, 54, 54, 256)  0           shortcut_37[0][0]                
__________________________________________________________________________________________________
conv_38 (Conv2D)                (None, 26, 26, 512)  1179648     pad_38[0][0]                     
__________________________________________________________________________________________________
bnorm_38 (BatchNormalization)   (None, 26, 26, 512)  2048        conv_38[0][0]                    
__________________________________________________________________________________________________
leaky_38 (LeakyReLU)            (None, 26, 26, 512)  0           bnorm_38[0][0]                   
__________________________________________________________________________________________________
conv_39 (Conv2D)                (None, 26, 26, 256)  131072      leaky_38[0][0]                   
__________________________________________________________________________________________________
bnorm_39 (BatchNormalization)   (None, 26, 26, 256)  1024        conv_39[0][0]                    
__________________________________________________________________________________________________
leaky_39 (LeakyReLU)            (None, 26, 26, 256)  0           bnorm_39[0][0]                   
__________________________________________________________________________________________________
conv_40 (Conv2D)                (None, 26, 26, 512)  1179648     leaky_39[0][0]                   
__________________________________________________________________________________________________
bnorm_40 (BatchNormalization)   (None, 26, 26, 512)  2048        conv_40[0][0]                    
__________________________________________________________________________________________________
leaky_40 (LeakyReLU)            (None, 26, 26, 512)  0           bnorm_40[0][0]                   
__________________________________________________________________________________________________
shortcut_41 (Add)               (None, 26, 26, 512)  0           leaky_40[0][0]                   
                                                                 leaky_38[0][0]                   
__________________________________________________________________________________________________
conv_42 (Conv2D)                (None, 26, 26, 256)  131072      shortcut_41[0][0]                
__________________________________________________________________________________________________
bnorm_42 (BatchNormalization)   (None, 26, 26, 256)  1024        conv_42[0][0]                    
__________________________________________________________________________________________________
leaky_42 (LeakyReLU)            (None, 26, 26, 256)  0           bnorm_42[0][0]                   
__________________________________________________________________________________________________
conv_43 (Conv2D)                (None, 26, 26, 512)  1179648     leaky_42[0][0]                   
__________________________________________________________________________________________________
bnorm_43 (BatchNormalization)   (None, 26, 26, 512)  2048        conv_43[0][0]                    
__________________________________________________________________________________________________
leaky_43 (LeakyReLU)            (None, 26, 26, 512)  0           bnorm_43[0][0]                   
__________________________________________________________________________________________________
shortcut_44 (Add)               (None, 26, 26, 512)  0           leaky_43[0][0]                   
                                                                 shortcut_41[0][0]                
__________________________________________________________________________________________________
conv_45 (Conv2D)                (None, 26, 26, 256)  131072      shortcut_44[0][0]                
__________________________________________________________________________________________________
bnorm_45 (BatchNormalization)   (None, 26, 26, 256)  1024        conv_45[0][0]                    
__________________________________________________________________________________________________
leaky_45 (LeakyReLU)            (None, 26, 26, 256)  0           bnorm_45[0][0]                   
__________________________________________________________________________________________________
conv_46 (Conv2D)                (None, 26, 26, 512)  1179648     leaky_45[0][0]                   
__________________________________________________________________________________________________
bnorm_46 (BatchNormalization)   (None, 26, 26, 512)  2048        conv_46[0][0]                    
__________________________________________________________________________________________________
leaky_46 (LeakyReLU)            (None, 26, 26, 512)  0           bnorm_46[0][0]                   
__________________________________________________________________________________________________
shortcut_47 (Add)               (None, 26, 26, 512)  0           leaky_46[0][0]                   
                                                                 shortcut_44[0][0]                
__________________________________________________________________________________________________
conv_48 (Conv2D)                (None, 26, 26, 256)  131072      shortcut_47[0][0]                
__________________________________________________________________________________________________
bnorm_48 (BatchNormalization)   (None, 26, 26, 256)  1024        conv_48[0][0]                    
__________________________________________________________________________________________________
leaky_48 (LeakyReLU)            (None, 26, 26, 256)  0           bnorm_48[0][0]                   
__________________________________________________________________________________________________
conv_49 (Conv2D)                (None, 26, 26, 512)  1179648     leaky_48[0][0]                   
__________________________________________________________________________________________________
bnorm_49 (BatchNormalization)   (None, 26, 26, 512)  2048        conv_49[0][0]                    
__________________________________________________________________________________________________
leaky_49 (LeakyReLU)            (None, 26, 26, 512)  0           bnorm_49[0][0]                   
__________________________________________________________________________________________________
shortcut_50 (Add)               (None, 26, 26, 512)  0           leaky_49[0][0]                   
                                                                 shortcut_47[0][0]                
__________________________________________________________________________________________________
conv_51 (Conv2D)                (None, 26, 26, 256)  131072      shortcut_50[0][0]                
__________________________________________________________________________________________________
bnorm_51 (BatchNormalization)   (None, 26, 26, 256)  1024        conv_51[0][0]                    
__________________________________________________________________________________________________
leaky_51 (LeakyReLU)            (None, 26, 26, 256)  0           bnorm_51[0][0]                   
__________________________________________________________________________________________________
conv_52 (Conv2D)                (None, 26, 26, 512)  1179648     leaky_51[0][0]                   
__________________________________________________________________________________________________
bnorm_52 (BatchNormalization)   (None, 26, 26, 512)  2048        conv_52[0][0]                    
__________________________________________________________________________________________________
leaky_52 (LeakyReLU)            (None, 26, 26, 512)  0           bnorm_52[0][0]                   
__________________________________________________________________________________________________
shortcut_53 (Add)               (None, 26, 26, 512)  0           leaky_52[0][0]                   
                                                                 shortcut_50[0][0]                
__________________________________________________________________________________________________
conv_54 (Conv2D)                (None, 26, 26, 256)  131072      shortcut_53[0][0]                
__________________________________________________________________________________________________
bnorm_54 (BatchNormalization)   (None, 26, 26, 256)  1024        conv_54[0][0]                    
__________________________________________________________________________________________________
leaky_54 (LeakyReLU)            (None, 26, 26, 256)  0           bnorm_54[0][0]                   
__________________________________________________________________________________________________
conv_55 (Conv2D)                (None, 26, 26, 512)  1179648     leaky_54[0][0]                   
__________________________________________________________________________________________________
bnorm_55 (BatchNormalization)   (None, 26, 26, 512)  2048        conv_55[0][0]                    
__________________________________________________________________________________________________
leaky_55 (LeakyReLU)            (None, 26, 26, 512)  0           bnorm_55[0][0]                   
__________________________________________________________________________________________________
shortcut_56 (Add)               (None, 26, 26, 512)  0           leaky_55[0][0]                   
                                                                 shortcut_53[0][0]                
__________________________________________________________________________________________________
conv_57 (Conv2D)                (None, 26, 26, 256)  131072      shortcut_56[0][0]                
__________________________________________________________________________________________________
bnorm_57 (BatchNormalization)   (None, 26, 26, 256)  1024        conv_57[0][0]                    
__________________________________________________________________________________________________
leaky_57 (LeakyReLU)            (None, 26, 26, 256)  0           bnorm_57[0][0]                   
__________________________________________________________________________________________________
conv_58 (Conv2D)                (None, 26, 26, 512)  1179648     leaky_57[0][0]                   
__________________________________________________________________________________________________
bnorm_58 (BatchNormalization)   (None, 26, 26, 512)  2048        conv_58[0][0]                    
__________________________________________________________________________________________________
leaky_58 (LeakyReLU)            (None, 26, 26, 512)  0           bnorm_58[0][0]                   
__________________________________________________________________________________________________
shortcut_59 (Add)               (None, 26, 26, 512)  0           leaky_58[0][0]                   
                                                                 shortcut_56[0][0]                
__________________________________________________________________________________________________
conv_60 (Conv2D)                (None, 26, 26, 256)  131072      shortcut_59[0][0]                
__________________________________________________________________________________________________
bnorm_60 (BatchNormalization)   (None, 26, 26, 256)  1024        conv_60[0][0]                    
__________________________________________________________________________________________________
leaky_60 (LeakyReLU)            (None, 26, 26, 256)  0           bnorm_60[0][0]                   
__________________________________________________________________________________________________
conv_61 (Conv2D)                (None, 26, 26, 512)  1179648     leaky_60[0][0]                   
__________________________________________________________________________________________________
bnorm_61 (BatchNormalization)   (None, 26, 26, 512)  2048        conv_61[0][0]                    
__________________________________________________________________________________________________
leaky_61 (LeakyReLU)            (None, 26, 26, 512)  0           bnorm_61[0][0]                   
__________________________________________________________________________________________________
shortcut_62 (Add)               (None, 26, 26, 512)  0           leaky_61[0][0]                   
                                                                 shortcut_59[0][0]                
__________________________________________________________________________________________________
pad_63 (ZeroPadding2D)          (None, 28, 28, 512)  0           shortcut_62[0][0]                
__________________________________________________________________________________________________
conv_63 (Conv2D)                (None, 13, 13, 1024) 4718592     pad_63[0][0]                     
__________________________________________________________________________________________________
bnorm_63 (BatchNormalization)   (None, 13, 13, 1024) 4096        conv_63[0][0]                    
__________________________________________________________________________________________________
leaky_63 (LeakyReLU)            (None, 13, 13, 1024) 0           bnorm_63[0][0]                   
__________________________________________________________________________________________________
conv_64 (Conv2D)                (None, 13, 13, 512)  524288      leaky_63[0][0]                   
__________________________________________________________________________________________________
bnorm_64 (BatchNormalization)   (None, 13, 13, 512)  2048        conv_64[0][0]                    
__________________________________________________________________________________________________
leaky_64 (LeakyReLU)            (None, 13, 13, 512)  0           bnorm_64[0][0]                   
__________________________________________________________________________________________________
conv_65 (Conv2D)                (None, 13, 13, 1024) 4718592     leaky_64[0][0]                   
__________________________________________________________________________________________________
bnorm_65 (BatchNormalization)   (None, 13, 13, 1024) 4096        conv_65[0][0]                    
__________________________________________________________________________________________________
leaky_65 (LeakyReLU)            (None, 13, 13, 1024) 0           bnorm_65[0][0]                   
__________________________________________________________________________________________________
shortcut_66 (Add)               (None, 13, 13, 1024) 0           leaky_65[0][0]                   
                                                                 leaky_63[0][0]                   
__________________________________________________________________________________________________
conv_67 (Conv2D)                (None, 13, 13, 512)  524288      shortcut_66[0][0]                
__________________________________________________________________________________________________
bnorm_67 (BatchNormalization)   (None, 13, 13, 512)  2048        conv_67[0][0]                    
__________________________________________________________________________________________________
leaky_67 (LeakyReLU)            (None, 13, 13, 512)  0           bnorm_67[0][0]                   
__________________________________________________________________________________________________
conv_68 (Conv2D)                (None, 13, 13, 1024) 4718592     leaky_67[0][0]                   
__________________________________________________________________________________________________
bnorm_68 (BatchNormalization)   (None, 13, 13, 1024) 4096        conv_68[0][0]                    
__________________________________________________________________________________________________
leaky_68 (LeakyReLU)            (None, 13, 13, 1024) 0           bnorm_68[0][0]                   
__________________________________________________________________________________________________
shortcut_69 (Add)               (None, 13, 13, 1024) 0           leaky_68[0][0]                   
                                                                 shortcut_66[0][0]                
__________________________________________________________________________________________________
conv_70 (Conv2D)                (None, 13, 13, 512)  524288      shortcut_69[0][0]                
__________________________________________________________________________________________________
bnorm_70 (BatchNormalization)   (None, 13, 13, 512)  2048        conv_70[0][0]                    
__________________________________________________________________________________________________
leaky_70 (LeakyReLU)            (None, 13, 13, 512)  0           bnorm_70[0][0]                   
__________________________________________________________________________________________________
conv_71 (Conv2D)                (None, 13, 13, 1024) 4718592     leaky_70[0][0]                   
__________________________________________________________________________________________________
bnorm_71 (BatchNormalization)   (None, 13, 13, 1024) 4096        conv_71[0][0]                    
__________________________________________________________________________________________________
leaky_71 (LeakyReLU)            (None, 13, 13, 1024) 0           bnorm_71[0][0]                   
__________________________________________________________________________________________________
shortcut_72 (Add)               (None, 13, 13, 1024) 0           leaky_71[0][0]                   
                                                                 shortcut_69[0][0]                
__________________________________________________________________________________________________
conv_73 (Conv2D)                (None, 13, 13, 512)  524288      shortcut_72[0][0]                
__________________________________________________________________________________________________
bnorm_73 (BatchNormalization)   (None, 13, 13, 512)  2048        conv_73[0][0]                    
__________________________________________________________________________________________________
leaky_73 (LeakyReLU)            (None, 13, 13, 512)  0           bnorm_73[0][0]                   
__________________________________________________________________________________________________
conv_74 (Conv2D)                (None, 13, 13, 1024) 4718592     leaky_73[0][0]                   
__________________________________________________________________________________________________
bnorm_74 (BatchNormalization)   (None, 13, 13, 1024) 4096        conv_74[0][0]                    
__________________________________________________________________________________________________
leaky_74 (LeakyReLU)            (None, 13, 13, 1024) 0           bnorm_74[0][0]                   
__________________________________________________________________________________________________
shortcut_75 (Add)               (None, 13, 13, 1024) 0           leaky_74[0][0]                   
                                                                 shortcut_72[0][0]                
__________________________________________________________________________________________________
conv_76 (Conv2D)                (None, 13, 13, 512)  524288      shortcut_75[0][0]                
__________________________________________________________________________________________________
bnorm_76 (BatchNormalization)   (None, 13, 13, 512)  2048        conv_76[0][0]                    
__________________________________________________________________________________________________
leaky_76 (LeakyReLU)            (None, 13, 13, 512)  0           bnorm_76[0][0]                   
__________________________________________________________________________________________________
conv_77 (Conv2D)                (None, 13, 13, 1024) 4718592     leaky_76[0][0]                   
__________________________________________________________________________________________________
bnorm_77 (BatchNormalization)   (None, 13, 13, 1024) 4096        conv_77[0][0]                    
__________________________________________________________________________________________________
leaky_77 (LeakyReLU)            (None, 13, 13, 1024) 0           bnorm_77[0][0]                   
__________________________________________________________________________________________________
conv_78 (Conv2D)                (None, 13, 13, 512)  524288      leaky_77[0][0]                   
__________________________________________________________________________________________________
bnorm_78 (BatchNormalization)   (None, 13, 13, 512)  2048        conv_78[0][0]                    
__________________________________________________________________________________________________
leaky_78 (LeakyReLU)            (None, 13, 13, 512)  0           bnorm_78[0][0]                   
__________________________________________________________________________________________________
conv_79 (Conv2D)                (None, 13, 13, 1024) 4718592     leaky_78[0][0]                   
__________________________________________________________________________________________________
bnorm_79 (BatchNormalization)   (None, 13, 13, 1024) 4096        conv_79[0][0]                    
__________________________________________________________________________________________________
leaky_79 (LeakyReLU)            (None, 13, 13, 1024) 0           bnorm_79[0][0]                   
__________________________________________________________________________________________________
conv_80 (Conv2D)                (None, 13, 13, 512)  524288      leaky_79[0][0]                   
__________________________________________________________________________________________________
bnorm_80 (BatchNormalization)   (None, 13, 13, 512)  2048        conv_80[0][0]                    
__________________________________________________________________________________________________
leaky_80 (LeakyReLU)            (None, 13, 13, 512)  0           bnorm_80[0][0]                   
__________________________________________________________________________________________________
conv_81 (Conv2D)                (None, 13, 13, 1024) 4718592     leaky_80[0][0]                   
__________________________________________________________________________________________________
bnorm_81 (BatchNormalization)   (None, 13, 13, 1024) 4096        conv_81[0][0]                    
__________________________________________________________________________________________________
leaky_81 (LeakyReLU)            (None, 13, 13, 1024) 0           bnorm_81[0][0]                   
__________________________________________________________________________________________________
conv_82 (Conv2D)                (None, 13, 13, 255)  261375      leaky_81[0][0]                   
__________________________________________________________________________________________________
dummy_yolo_reshape_83 (Reshape) (None, 13, 13, 512)  0           conv_82[0][0]                    
__________________________________________________________________________________________________
dummy_yolo_all_zero_83 (Lambda) (None, 13, 13, 512)  0           dummy_yolo_reshape_83[0][0]      
__________________________________________________________________________________________________
route_84 (Add)                  (None, 13, 13, 512)  0           leaky_80[0][0]                   
                                                                 dummy_yolo_all_zero_83[0][0]     
__________________________________________________________________________________________________
conv_85 (Conv2D)                (None, 13, 13, 256)  131072      route_84[0][0]                   
__________________________________________________________________________________________________
bnorm_85 (BatchNormalization)   (None, 13, 13, 256)  1024        conv_85[0][0]                    
__________________________________________________________________________________________________
leaky_85 (LeakyReLU)            (None, 13, 13, 256)  0           bnorm_85[0][0]                   
__________________________________________________________________________________________________
upsample_86 (UpSampling2D)      (None, 26, 26, 256)  0           leaky_85[0][0]                   
__________________________________________________________________________________________________
route_87 (Concatenate)          (None, 26, 26, 768)  0           upsample_86[0][0]                
                                                                 leaky_61[0][0]                   
__________________________________________________________________________________________________
conv_88 (Conv2D)                (None, 26, 26, 256)  196608      route_87[0][0]                   
__________________________________________________________________________________________________
bnorm_88 (BatchNormalization)   (None, 26, 26, 256)  1024        conv_88[0][0]                    
__________________________________________________________________________________________________
leaky_88 (LeakyReLU)            (None, 26, 26, 256)  0           bnorm_88[0][0]                   
__________________________________________________________________________________________________
conv_89 (Conv2D)                (None, 26, 26, 512)  1179648     leaky_88[0][0]                   
__________________________________________________________________________________________________
bnorm_89 (BatchNormalization)   (None, 26, 26, 512)  2048        conv_89[0][0]                    
__________________________________________________________________________________________________
leaky_89 (LeakyReLU)            (None, 26, 26, 512)  0           bnorm_89[0][0]                   
__________________________________________________________________________________________________
conv_90 (Conv2D)                (None, 26, 26, 256)  131072      leaky_89[0][0]                   
__________________________________________________________________________________________________
bnorm_90 (BatchNormalization)   (None, 26, 26, 256)  1024        conv_90[0][0]                    
__________________________________________________________________________________________________
leaky_90 (LeakyReLU)            (None, 26, 26, 256)  0           bnorm_90[0][0]                   
__________________________________________________________________________________________________
conv_91 (Conv2D)                (None, 26, 26, 512)  1179648     leaky_90[0][0]                   
__________________________________________________________________________________________________
bnorm_91 (BatchNormalization)   (None, 26, 26, 512)  2048        conv_91[0][0]                    
__________________________________________________________________________________________________
leaky_91 (LeakyReLU)            (None, 26, 26, 512)  0           bnorm_91[0][0]                   
__________________________________________________________________________________________________
conv_92 (Conv2D)                (None, 26, 26, 256)  131072      leaky_91[0][0]                   
__________________________________________________________________________________________________
bnorm_92 (BatchNormalization)   (None, 26, 26, 256)  1024        conv_92[0][0]                    
__________________________________________________________________________________________________
leaky_92 (LeakyReLU)            (None, 26, 26, 256)  0           bnorm_92[0][0]                   
__________________________________________________________________________________________________
conv_93 (Conv2D)                (None, 26, 26, 512)  1179648     leaky_92[0][0]                   
__________________________________________________________________________________________________
bnorm_93 (BatchNormalization)   (None, 26, 26, 512)  2048        conv_93[0][0]                    
__________________________________________________________________________________________________
leaky_93 (LeakyReLU)            (None, 26, 26, 512)  0           bnorm_93[0][0]                   
__________________________________________________________________________________________________
conv_94 (Conv2D)                (None, 26, 26, 255)  130815      leaky_93[0][0]                   
__________________________________________________________________________________________________
dummy_yolo_reshape_95 (Reshape) (None, 26, 26, 256)  0           conv_94[0][0]                    
__________________________________________________________________________________________________
dummy_yolo_all_zero_95 (Lambda) (None, 26, 26, 256)  0           dummy_yolo_reshape_95[0][0]      
__________________________________________________________________________________________________
route_96 (Add)                  (None, 26, 26, 256)  0           leaky_92[0][0]                   
                                                                 dummy_yolo_all_zero_95[0][0]     
__________________________________________________________________________________________________
conv_97 (Conv2D)                (None, 26, 26, 128)  32768       route_96[0][0]                   
__________________________________________________________________________________________________
bnorm_97 (BatchNormalization)   (None, 26, 26, 128)  512         conv_97[0][0]                    
__________________________________________________________________________________________________
leaky_97 (LeakyReLU)            (None, 26, 26, 128)  0           bnorm_97[0][0]                   
__________________________________________________________________________________________________
upsample_98 (UpSampling2D)      (None, 52, 52, 128)  0           leaky_97[0][0]                   
__________________________________________________________________________________________________
route_99 (Concatenate)          (None, 52, 52, 384)  0           upsample_98[0][0]                
                                                                 leaky_36[0][0]                   
__________________________________________________________________________________________________
conv_100 (Conv2D)               (None, 52, 52, 128)  49152       route_99[0][0]                   
__________________________________________________________________________________________________
bnorm_100 (BatchNormalization)  (None, 52, 52, 128)  512         conv_100[0][0]                   
__________________________________________________________________________________________________
leaky_100 (LeakyReLU)           (None, 52, 52, 128)  0           bnorm_100[0][0]                  
__________________________________________________________________________________________________
conv_101 (Conv2D)               (None, 52, 52, 256)  294912      leaky_100[0][0]                  
__________________________________________________________________________________________________
bnorm_101 (BatchNormalization)  (None, 52, 52, 256)  1024        conv_101[0][0]                   
__________________________________________________________________________________________________
leaky_101 (LeakyReLU)           (None, 52, 52, 256)  0           bnorm_101[0][0]                  
__________________________________________________________________________________________________
conv_102 (Conv2D)               (None, 52, 52, 128)  32768       leaky_101[0][0]                  
__________________________________________________________________________________________________
bnorm_102 (BatchNormalization)  (None, 52, 52, 128)  512         conv_102[0][0]                   
__________________________________________________________________________________________________
leaky_102 (LeakyReLU)           (None, 52, 52, 128)  0           bnorm_102[0][0]                  
__________________________________________________________________________________________________
conv_103 (Conv2D)               (None, 52, 52, 256)  294912      leaky_102[0][0]                  
__________________________________________________________________________________________________
bnorm_103 (BatchNormalization)  (None, 52, 52, 256)  1024        conv_103[0][0]                   
__________________________________________________________________________________________________
leaky_103 (LeakyReLU)           (None, 52, 52, 256)  0           bnorm_103[0][0]                  
__________________________________________________________________________________________________
conv_104 (Conv2D)               (None, 52, 52, 128)  32768       leaky_103[0][0]                  
__________________________________________________________________________________________________
bnorm_104 (BatchNormalization)  (None, 52, 52, 128)  512         conv_104[0][0]                   
__________________________________________________________________________________________________
leaky_104 (LeakyReLU)           (None, 52, 52, 128)  0           bnorm_104[0][0]                  
__________________________________________________________________________________________________
conv_105 (Conv2D)               (None, 52, 52, 256)  294912      leaky_104[0][0]                  
__________________________________________________________________________________________________
bnorm_105 (BatchNormalization)  (None, 52, 52, 256)  1024        conv_105[0][0]                   
__________________________________________________________________________________________________
leaky_105 (LeakyReLU)           (None, 52, 52, 256)  0           bnorm_105[0][0]                  
__________________________________________________________________________________________________
conv_106 (Conv2D)               (None, 52, 52, 255)  65535       leaky_105[0][0]                  
==================================================================================================
Total params: 62,001,757
Trainable params: 61,949,149
Non-trainable params: 52,608
__________________________________________________________________________________________________
